{"class_name": "Sequential", "config": [{"class_name": "Dense", "config": {"name": "dense_3", "b_constraint": null, "batch_input_shape": [null, 3000], "trainable": true, "output_dim": 1500, "b_regularizer": null, "input_dtype": "float32", "init": "glorot_uniform", "input_dim": 3000, "bias": true, "W_constraint": null, "W_regularizer": null, "activity_regularizer": null, "activation": "linear"}}, {"class_name": "Activation", "config": {"name": "activation_3", "trainable": true, "activation": "relu"}}, {"class_name": "Dense", "config": {"name": "dense_4", "b_constraint": null, "trainable": true, "b_regularizer": null, "init": "glorot_uniform", "input_dim": null, "output_dim": 784, "W_constraint": null, "bias": true, "W_regularizer": null, "activity_regularizer": null, "activation": "linear"}}, {"class_name": "Activation", "config": {"name": "activation_4", "trainable": true, "activation": "sigmoid"}}, {"class_name": "Sequential", "config": [{"class_name": "Dense", "config": {"name": "dense_1", "b_constraint": null, "batch_input_shape": [null, 784], "trainable": true, "b_regularizer": null, "input_dtype": "float32", "init": "glorot_uniform", "input_dim": 784, "bias": true, "W_constraint": null, "W_regularizer": null, "activation": "linear", "activity_regularizer": null, "output_dim": 250}}, {"class_name": "Activation", "config": {"name": "activation_1", "trainable": true, "activation": "sigmoid"}}, {"class_name": "Dense", "config": {"name": "dense_2", "b_constraint": null, "trainable": true, "b_regularizer": null, "init": "glorot_uniform", "input_dim": null, "output_dim": 1, "W_constraint": null, "W_regularizer": null, "activation": "linear", "activity_regularizer": null, "bias": true}}, {"class_name": "Activation", "config": {"name": "activation_2", "trainable": true, "activation": "sigmoid"}}]}]}