{"class_name": "Sequential", "config": [{"class_name": "Dense", "config": {"b_regularizer": null, "trainable": true, "input_dim": 3000, "name": "dense_3", "b_constraint": null, "W_constraint": null, "activation": "linear", "bias": true, "activity_regularizer": null, "W_regularizer": null, "output_dim": 1500, "input_dtype": "float32", "init": "glorot_uniform", "batch_input_shape": [null, 3000]}}, {"class_name": "Activation", "config": {"name": "activation_3", "trainable": true, "activation": "relu"}}, {"class_name": "Dense", "config": {"b_regularizer": null, "trainable": true, "input_dim": null, "name": "dense_4", "b_constraint": null, "W_constraint": null, "W_regularizer": null, "bias": true, "activity_regularizer": null, "activation": "linear", "output_dim": 784, "init": "glorot_uniform"}}, {"class_name": "Activation", "config": {"name": "activation_4", "trainable": true, "activation": "sigmoid"}}, {"class_name": "Sequential", "config": [{"class_name": "Dense", "config": {"b_regularizer": null, "trainable": true, "input_dim": 784, "name": "dense_1", "b_constraint": null, "W_constraint": null, "W_regularizer": null, "bias": true, "activity_regularizer": null, "activation": "linear", "output_dim": 250, "input_dtype": "float32", "init": "glorot_uniform", "batch_input_shape": [null, 784]}}, {"class_name": "Activation", "config": {"name": "activation_1", "trainable": true, "activation": "sigmoid"}}, {"class_name": "Dense", "config": {"b_regularizer": null, "trainable": true, "input_dim": null, "name": "dense_2", "b_constraint": null, "W_constraint": null, "activation": "linear", "bias": true, "activity_regularizer": null, "W_regularizer": null, "output_dim": 1, "init": "glorot_uniform"}}, {"class_name": "Activation", "config": {"name": "activation_2", "trainable": true, "activation": "sigmoid"}}]}]}