{"config": [{"config": {"activation": "linear", "activity_regularizer": null, "trainable": true, "bias": true, "name": "dense_3", "W_constraint": null, "batch_input_shape": [null, 3000], "b_constraint": null, "b_regularizer": null, "input_dtype": "float32", "init": "glorot_uniform", "input_dim": 3000, "W_regularizer": null, "output_dim": 1500}, "class_name": "Dense"}, {"config": {"name": "activation_3", "activation": "relu", "trainable": true}, "class_name": "Activation"}, {"config": {"activation": "linear", "activity_regularizer": null, "trainable": true, "bias": true, "name": "dense_4", "W_constraint": null, "b_constraint": null, "b_regularizer": null, "init": "glorot_uniform", "input_dim": null, "W_regularizer": null, "output_dim": 784}, "class_name": "Dense"}, {"config": {"name": "activation_4", "activation": "sigmoid", "trainable": true}, "class_name": "Activation"}, {"config": [{"config": {"activation": "linear", "activity_regularizer": null, "trainable": true, "bias": true, "name": "dense_1", "W_regularizer": null, "batch_input_shape": [null, 784], "b_constraint": null, "b_regularizer": null, "input_dtype": "float32", "init": "glorot_uniform", "input_dim": 784, "W_constraint": null, "output_dim": 250}, "class_name": "Dense"}, {"config": {"name": "activation_1", "activation": "sigmoid", "trainable": true}, "class_name": "Activation"}, {"config": {"activation": "linear", "activity_regularizer": null, "trainable": true, "bias": true, "name": "dense_2", "W_constraint": null, "b_constraint": null, "b_regularizer": null, "init": "glorot_uniform", "input_dim": null, "W_regularizer": null, "output_dim": 1}, "class_name": "Dense"}, {"config": {"name": "activation_2", "activation": "sigmoid", "trainable": true}, "class_name": "Activation"}], "class_name": "Sequential"}], "class_name": "Sequential"}