{"class_name": "Sequential", "config": [{"class_name": "Dense", "config": {"activation": "linear", "input_dim": 3000, "b_constraint": null, "activity_regularizer": null, "bias": true, "name": "dense_3", "input_dtype": "float32", "b_regularizer": null, "init": "glorot_uniform", "output_dim": 1500, "batch_input_shape": [null, 3000], "trainable": true, "W_constraint": null, "W_regularizer": null}}, {"class_name": "Activation", "config": {"trainable": true, "activation": "relu", "name": "activation_3"}}, {"class_name": "Dense", "config": {"activation": "linear", "input_dim": null, "b_constraint": null, "activity_regularizer": null, "bias": true, "name": "dense_4", "b_regularizer": null, "init": "glorot_uniform", "output_dim": 784, "trainable": true, "W_constraint": null, "W_regularizer": null}}, {"class_name": "Activation", "config": {"trainable": true, "activation": "sigmoid", "name": "activation_4"}}, {"class_name": "Sequential", "config": [{"class_name": "Dense", "config": {"activation": "linear", "input_dim": 784, "b_constraint": null, "activity_regularizer": null, "bias": true, "name": "dense_1", "input_dtype": "float32", "b_regularizer": null, "init": "glorot_uniform", "output_dim": 250, "batch_input_shape": [null, 784], "trainable": true, "W_constraint": null, "W_regularizer": null}}, {"class_name": "Activation", "config": {"trainable": true, "activation": "sigmoid", "name": "activation_1"}}, {"class_name": "Dense", "config": {"activation": "linear", "input_dim": null, "b_constraint": null, "activity_regularizer": null, "bias": true, "name": "dense_2", "b_regularizer": null, "init": "glorot_uniform", "output_dim": 1, "trainable": true, "W_constraint": null, "W_regularizer": null}}, {"class_name": "Activation", "config": {"trainable": true, "activation": "sigmoid", "name": "activation_2"}}]}]}