{"class_name": "Sequential", "config": [{"class_name": "Dense", "config": {"input_dtype": "float32", "activity_regularizer": null, "activation": "linear", "name": "dense_3", "init": "glorot_uniform", "batch_input_shape": [null, 3000], "W_regularizer": null, "b_constraint": null, "bias": true, "input_dim": 3000, "trainable": true, "output_dim": 1500, "W_constraint": null, "b_regularizer": null}}, {"class_name": "Activation", "config": {"trainable": true, "activation": "relu", "name": "activation_3"}}, {"class_name": "Dense", "config": {"activity_regularizer": null, "activation": "linear", "name": "dense_4", "init": "glorot_uniform", "W_regularizer": null, "b_constraint": null, "bias": true, "input_dim": null, "trainable": true, "output_dim": 784, "W_constraint": null, "b_regularizer": null}}, {"class_name": "Activation", "config": {"trainable": true, "activation": "sigmoid", "name": "activation_4"}}, {"class_name": "Sequential", "config": [{"class_name": "Dense", "config": {"input_dtype": "float32", "activity_regularizer": null, "activation": "linear", "name": "dense_1", "init": "glorot_uniform", "batch_input_shape": [null, 784], "W_regularizer": null, "input_dim": 784, "bias": true, "b_constraint": null, "trainable": true, "output_dim": 250, "W_constraint": null, "b_regularizer": null}}, {"class_name": "Activation", "config": {"trainable": true, "activation": "sigmoid", "name": "activation_1"}}, {"class_name": "Dense", "config": {"activity_regularizer": null, "activation": "linear", "name": "dense_2", "init": "glorot_uniform", "W_regularizer": null, "input_dim": null, "bias": true, "b_constraint": null, "trainable": true, "output_dim": 1, "W_constraint": null, "b_regularizer": null}}, {"class_name": "Activation", "config": {"trainable": true, "activation": "sigmoid", "name": "activation_2"}}]}]}