{"class_name": "Sequential", "config": [{"class_name": "Dense", "config": {"activation": "linear", "batch_input_shape": [null, 3000], "activity_regularizer": null, "input_dim": 3000, "W_constraint": null, "trainable": true, "bias": true, "input_dtype": "float32", "name": "dense_3", "init": "glorot_uniform", "b_regularizer": null, "b_constraint": null, "W_regularizer": null, "output_dim": 1500}}, {"class_name": "Activation", "config": {"name": "activation_3", "activation": "relu", "trainable": true}}, {"class_name": "Dense", "config": {"activation": "linear", "activity_regularizer": null, "W_regularizer": null, "input_dim": null, "W_constraint": null, "trainable": true, "bias": true, "output_dim": 784, "name": "dense_4", "init": "glorot_uniform", "b_regularizer": null, "b_constraint": null}}, {"class_name": "Activation", "config": {"name": "activation_4", "activation": "sigmoid", "trainable": true}}, {"class_name": "Sequential", "config": [{"class_name": "Dense", "config": {"activation": "linear", "batch_input_shape": [null, 784], "activity_regularizer": null, "W_regularizer": null, "input_dim": 784, "W_constraint": null, "trainable": true, "bias": true, "input_dtype": "float32", "name": "dense_1", "init": "glorot_uniform", "b_regularizer": null, "b_constraint": null, "output_dim": 250}}, {"class_name": "Activation", "config": {"name": "activation_1", "activation": "sigmoid", "trainable": true}}, {"class_name": "Dense", "config": {"activation": "linear", "activity_regularizer": null, "input_dim": null, "W_constraint": null, "trainable": true, "bias": true, "output_dim": 1, "name": "dense_2", "init": "glorot_uniform", "b_regularizer": null, "b_constraint": null, "W_regularizer": null}}, {"class_name": "Activation", "config": {"name": "activation_2", "activation": "sigmoid", "trainable": true}}]}]}