{"config": [{"config": {"init": "glorot_uniform", "bias": true, "name": "dense_3", "output_dim": 1500, "b_constraint": null, "activation": "linear", "batch_input_shape": [null, 3000], "W_constraint": null, "W_regularizer": null, "trainable": true, "activity_regularizer": null, "input_dim": 3000, "input_dtype": "float32", "b_regularizer": null}, "class_name": "Dense"}, {"config": {"name": "activation_3", "activation": "relu", "trainable": true}, "class_name": "Activation"}, {"config": {"bias": true, "name": "dense_4", "output_dim": 784, "b_constraint": null, "activation": "linear", "W_regularizer": null, "W_constraint": null, "init": "glorot_uniform", "activity_regularizer": null, "trainable": true, "input_dim": null, "b_regularizer": null}, "class_name": "Dense"}, {"config": {"name": "activation_4", "activation": "sigmoid", "trainable": true}, "class_name": "Activation"}, {"config": [{"config": {"bias": true, "name": "dense_1", "output_dim": 250, "b_constraint": null, "activation": "linear", "batch_input_shape": [null, 784], "W_constraint": null, "W_regularizer": null, "init": "glorot_uniform", "activity_regularizer": null, "b_regularizer": null, "input_dim": 784, "input_dtype": "float32", "trainable": true}, "class_name": "Dense"}, {"config": {"name": "activation_1", "activation": "sigmoid", "trainable": true}, "class_name": "Activation"}, {"config": {"bias": true, "W_regularizer": null, "output_dim": 1, "b_constraint": null, "activation": "linear", "name": "dense_2", "W_constraint": null, "init": "glorot_uniform", "activity_regularizer": null, "trainable": true, "b_regularizer": null, "input_dim": null}, "class_name": "Dense"}, {"config": {"name": "activation_2", "activation": "sigmoid", "trainable": true}, "class_name": "Activation"}], "class_name": "Sequential"}], "class_name": "Sequential"}