{"class_name": "Sequential", "config": [{"class_name": "Dense", "config": {"activation": "linear", "trainable": true, "b_regularizer": null, "W_constraint": null, "batch_input_shape": [null, 3000], "output_dim": 1500, "input_dtype": "float32", "init": "glorot_uniform", "W_regularizer": null, "b_constraint": null, "bias": true, "activity_regularizer": null, "input_dim": 3000, "name": "dense_3"}}, {"class_name": "Activation", "config": {"activation": "relu", "name": "activation_3", "trainable": true}}, {"class_name": "Dense", "config": {"activation": "linear", "activity_regularizer": null, "b_regularizer": null, "W_constraint": null, "output_dim": 784, "init": "glorot_uniform", "W_regularizer": null, "b_constraint": null, "bias": true, "trainable": true, "input_dim": null, "name": "dense_4"}}, {"class_name": "Activation", "config": {"activation": "sigmoid", "name": "activation_4", "trainable": true}}, {"class_name": "Sequential", "config": [{"class_name": "Dense", "config": {"activation": "linear", "activity_regularizer": null, "b_regularizer": null, "W_constraint": null, "batch_input_shape": [null, 784], "output_dim": 250, "input_dtype": "float32", "init": "glorot_uniform", "W_regularizer": null, "b_constraint": null, "bias": true, "trainable": true, "input_dim": 784, "name": "dense_1"}}, {"class_name": "Activation", "config": {"activation": "sigmoid", "name": "activation_1", "trainable": true}}, {"class_name": "Dense", "config": {"activation": "linear", "activity_regularizer": null, "b_regularizer": null, "W_constraint": null, "output_dim": 1, "init": "glorot_uniform", "W_regularizer": null, "b_constraint": null, "bias": true, "trainable": true, "input_dim": null, "name": "dense_2"}}, {"class_name": "Activation", "config": {"activation": "sigmoid", "name": "activation_2", "trainable": true}}]}]}