{"class_name": "Sequential", "config": [{"class_name": "Dense", "config": {"init": "glorot_uniform", "name": "dense_3", "bias": true, "b_constraint": null, "W_constraint": null, "trainable": true, "b_regularizer": null, "output_dim": 1500, "batch_input_shape": [null, 3000], "W_regularizer": null, "input_dim": 3000, "activity_regularizer": null, "activation": "linear", "input_dtype": "float32"}}, {"class_name": "Activation", "config": {"trainable": true, "activation": "relu", "name": "activation_3"}}, {"class_name": "Dense", "config": {"init": "glorot_uniform", "name": "dense_4", "bias": true, "b_constraint": null, "activation": "linear", "trainable": true, "output_dim": 784, "b_regularizer": null, "W_regularizer": null, "input_dim": null, "activity_regularizer": null, "W_constraint": null}}, {"class_name": "Activation", "config": {"trainable": true, "activation": "sigmoid", "name": "activation_4"}}, {"class_name": "Sequential", "config": [{"class_name": "Dense", "config": {"init": "glorot_uniform", "name": "dense_1", "bias": true, "output_dim": 250, "activation": "linear", "trainable": true, "b_regularizer": null, "b_constraint": null, "batch_input_shape": [null, 784], "W_regularizer": null, "input_dim": 784, "activity_regularizer": null, "W_constraint": null, "input_dtype": "float32"}}, {"class_name": "Activation", "config": {"activation": "sigmoid", "trainable": true, "name": "activation_1"}}, {"class_name": "Dense", "config": {"init": "glorot_uniform", "name": "dense_2", "bias": true, "output_dim": 1, "W_constraint": null, "trainable": true, "b_constraint": null, "b_regularizer": null, "W_regularizer": null, "input_dim": null, "activity_regularizer": null, "activation": "linear"}}, {"class_name": "Activation", "config": {"activation": "sigmoid", "trainable": true, "name": "activation_2"}}]}]}