{"class_name": "Sequential", "config": [{"class_name": "Dense", "config": {"bias": true, "output_dim": 1500, "activation": "linear", "batch_input_shape": [null, 3000], "trainable": true, "activity_regularizer": null, "W_constraint": null, "input_dtype": "float32", "W_regularizer": null, "name": "dense_3", "b_constraint": null, "b_regularizer": null, "input_dim": 3000, "init": "glorot_uniform"}}, {"class_name": "Activation", "config": {"trainable": true, "activation": "relu", "name": "activation_3"}}, {"class_name": "Dense", "config": {"bias": true, "output_dim": 784, "activation": "linear", "trainable": true, "activity_regularizer": null, "W_constraint": null, "W_regularizer": null, "name": "dense_4", "b_constraint": null, "b_regularizer": null, "input_dim": null, "init": "glorot_uniform"}}, {"class_name": "Activation", "config": {"trainable": true, "activation": "sigmoid", "name": "activation_4"}}, {"class_name": "Sequential", "config": [{"class_name": "Dense", "config": {"bias": true, "output_dim": 250, "activation": "linear", "b_regularizer": null, "trainable": true, "activity_regularizer": null, "W_constraint": null, "input_dtype": "float32", "W_regularizer": null, "init": "glorot_uniform", "b_constraint": null, "batch_input_shape": [null, 784], "input_dim": 784, "name": "dense_1"}}, {"class_name": "Activation", "config": {"trainable": true, "activation": "sigmoid", "name": "activation_1"}}, {"class_name": "Dense", "config": {"bias": true, "output_dim": 1, "activation": "linear", "trainable": true, "activity_regularizer": null, "W_constraint": null, "W_regularizer": null, "init": "glorot_uniform", "b_constraint": null, "b_regularizer": null, "input_dim": null, "name": "dense_2"}}, {"class_name": "Activation", "config": {"trainable": true, "activation": "sigmoid", "name": "activation_2"}}]}]}